models/model.pth (torch, 34396 bytes, 10 tensors)

conv1_1.weight f4 [10, 1, 3, 3]
000000 a6 ae e7 3d 06 1e 24 be a6 5b 08 3f 66 7e ce be
       0.113126084 -0.16027078 0.53264844 -0.4033081
000010 f6 aa ab 3e 44 1b dc 3e e3 ce 5b bc e4 5d cd 3d
       0.3352887 0.42989552 -0.013416025 0.10027674
000020 d5 e6 dd be d8 59 0d bf 25 04 9d be e1 4e 07 3c
       -0.43340173 -0.55215216 -0.30667225 0.008258552
000030 07 fc 4d be 28 3b 70 3e 48 7a f1 3d b2 fa 1b 3e
       -0.20115672 0.23460066 0.117909014 0.15232351
000040 a7 b8 d4 3e cc 66 d5 3e f6 5b 1e be e2 5c d9 bd
       0.4154713 0.4167999 -0.15464768 -0.10613419
000050 18 5e 6c 3e 8c 19 a7 3e 3b 08 64 3d 9a 40 ce bd
       0.23082769 0.32636678 0.05567191 -0.100709155
000060 52 33 ce 3d e0 71 0b 3e d0 d5 51 be 22 2e 64 3e
       0.10068382 0.13617659 -0.20491719 0.22283223
000070 9e 10 47 3e ef 71 b6 3c ff df b7 3e 60 e2 1f 3e
       0.19439933 0.022271125 0.35913083 0.15613699
000080 77 69 44 be d8 b2 3a be b2 99 bd bd fd 64 7f 3d
       -0.19180857 -0.18232286 -0.09257831 0.06235217
000090 f2 73 93 3e 5d 18 99 be 17 09 97 be c0 9b a7 3e
       0.28799397 -0.299014 -0.29499123 0.32736015
0000a0 53 de 1d bd 54 db 1b bd 2a dd 6b 3d 09 70 4a 3e
       -0.038542103 -0.038050964 0.057583965 0.197693
0000b0 8d cb 62 3c d8 8a 81 bd 9b 06 37 be 79 4f 62 be
       0.013842476 -0.063253105 -0.17873614 -0.22100629
0000c0 5c 5a 82 3d 1a 9e 85 bd 5e 2a 86 be 90 93 e2 3d
       0.06364891 -0.06524296 -0.262042 0.110633016
0000d0 c7 f1 ad 3e fd 94 d3 3e 42 ca 0f 3e c6 36 a8 b9
       0.33973524 0.41324607 0.14041999 -0.00032084266
0000e0 6e a1 72 bd 73 cd ba 3c 00 5b 05 be 19 84 7e 3e
       -0.059235983 0.022803044 -0.13022995 0.24855079
0000f0 72 ff e8 bd 0c 93 98 3e 85 1b cd 3e 45 0b 83 3b
       -0.11376847 0.29799688 0.40060058 0.003999146
000100 6a fd c4 be 70 b2 23 3e 77 a1 a2 3e 62 8e 69 be
       -0.3847459 0.15986037 0.31763813 -0.22808221
000110 c4 b2 8d 3c f3 e8 85 3e 13 55 cd bc 06 46 86 3d
       0.017297156 0.2615429 -0.02506498 0.06556325
000120 62 62 e3 3c b1 dc c5 3d df 85 a0 3e 1c 4f f2 3c
       0.027756874 0.09661234 0.31352136 0.029578738
000130 25 ec fc 3c 94 1f 04 bd 33 5d 95 be 20 4d 75 3e
       0.030874321 -0.032256678 -0.29172668 0.23955202
000140 a1 aa 07 3e cc 7e bb 3d 60 ce 2b 3e b3 28 ed be
       0.13248684 0.09155044 0.16777945 -0.46320114
000150 f6 48 a2 3e d5 33 82 be 81 b9 08 3e 10 dd 12 bd
       0.3169629 -0.2543017 0.13352014 -0.035855353
000160 51 aa 9a 3e 2a bd f8 3d
       0.30208066 0.12145455

conv1_1.bias f4 [10]
000000 a8 f1 38 be 78 e9 05 3e 51 a6 2f 3c de 12 93 3d
       -0.18060935 0.13077343 0.010720805 0.07181333
000010 4c 5a 95 bd e8 c7 d5 3d 4e 78 0f 3e 52 9c c0 bd
       -0.072926134 0.1043852 0.14010736 -0.09404816
000020 b3 60 52 3d 1a b2 8a bd
       0.05136175 -0.067722514

conv1_2.weight f4 [10, 10, 3, 3]
000000 55 32 0f be d4 e4 4a be 1a b3 c2 be 67 6a 96 bd
       -0.13984044 -0.19813854 -0.3802727 -0.073445134
000010 66 5f dc bc bd 85 c0 bd b3 6e 41 3e 4a 85 04 3e
       -0.026900958 -0.094005086 0.18889885 0.1294147
000020 cc 1d 9c 3d 83 73 6c be d1 a4 55 bd 47 d2 15 be
       0.07622871 -0.23090939 -0.052159134 -0.14630996
000030 36 93 41 be 67 6d c9 3c 32 7a 14 bc b5 c6 3b be
       -0.18903813 0.0245883 -0.009062337 -0.1833752
000040 b0 36 e9 bd 8c 9d 74 3d 50 b0 a1 3b 93 a2 90 bc
       -0.11387384 0.05972056 0.004934348 -0.017655646
000050 76 85 98 bd 8c 63 6a 3c 0d 59 b1 bd f1 8d 0f 3c
       -0.07447331 0.01430596 -0.08659563 0.008761869
000060 a4 4f cb 3b 93 c2 36 3e d6 83 37 3e 4d 7d 44 3d
       0.0062045623 0.17847662 0.17921385 0.04797106
000070 b2 e9 08 3d b8 29 6c be 28 6d bd 3c 44 6e 3e bd
       0.033425994 -0.2306279 0.023123339 -0.046491876
000080 ae 36 a1 3d 97 3a 1c bc 22 cb 3b 3e 5f b5 c6 3d
       0.078717574 -0.009535453 0.18339208 0.097025625
000090 31 bb cc 3d 99 2a 97 3d 3e fe d9 3d 80 af 57 3e
       0.099966414 0.07381172 0.10644196 0.21063042
0000a0 c0 12 f8 3d df f5 3d 3e ea 09 6a 3e 05 41 35 3e
       0.12112951 0.18550824 0.22855344 0.17700584
0000b0 5b d5 46 3e 57 fc db bd b8 a9 05 3e e5 7a 39 bd
       0.19417326 -0.107414894 0.13053024 -0.045283217
0000c0 ea d8 a6 3d 14 a5 bd 3d b0 86 d6 3d e8 8e 25 bc
       0.08146842 0.09260002 0.10474908 -0.010104872
0000d0 bf e2 4f 3d 55 ed 8d 3e c5 68 73 3c ac 04 c1 bd
       0.05075335 0.27720132 0.014856522 -0.09424719
0000e0 c2 bf 94 bd 94 92 4c 3e 61 e0 ed 3d 28 63 21 3e
       -0.072631374 0.1997779 0.116150625 0.15760481
0000f0 81 90 85 3d 24 f8 20 3e 77 4b 17 3e 76 74 27 3e
       0.065217026 0.15719658 0.14774881 0.1635302
000100 a8 4f 2d 3c 33 af 2c bd 83 70 81 3d fa 57 28 3e
       0.010578074 -0.04215927 0.06320288 0.1643981
000110 9e 1d b4 3d 11 32 23 3d 4a b4 21 3e b6 9d 46 3d
       0.087947115 0.03984267 0.15791431 0.04849025
000120 8a 61 95 bd a9 d4 de bc 85 da 82 be d9 a1 ff 3d
       -0.07293995 -0.027201014 -0.25557342 0.12482042
000130 13 46 d1 bc 3d 3c da 3c 39 80 57 bd 40 2e 0c 3e
       -0.02554611 0.026640052 -0.052612517 0.13689518
000140 fa 87 d7 3d 4f 12 f5 3d 31 ff fe 3c 62 9e d5 3d
       0.10523982 0.11966383 0.031127544 0.104306
000150 3f d6 15 3e a1 25 f1 3d 72 2b d6 3d 9b c0 cd 3c
       0.1463251 0.11774755 0.10457505 0.025116256
000160 16 3a b5 3c 75 dd 4a 3e 1e 04 da be 6f b0 79 be
       0.022122424 0.19811042 -0.42581266 -0.2438371
000170 42 7f 09 bd 42 89 b8 be 06 bb 17 be 1c 30 c6 bd
       -0.033568628 -0.3604222 -0.14817438 -0.09677145
000180 0a f0 25 3d 43 99 08 be 73 26 fa 3d 1a 4a 86 bd
       0.040512122 -0.13339715 0.12214365 -0.065571025
000190 59 c6 8a bd 98 5c 05 bd 53 8f c3 3d 93 f1 c5 3d
       -0.06776113 -0.032559007 0.09548821 0.09665217
0001a0 65 84 0c 3d a7 f1 3c 3e a8 cf 87 3d 34 eb bb 3d
       0.03430595 0.18451558 0.06631404 0.09175721
0001b0 bc 8f 78 be 6e 04 a6 bd 33 c4 50 be 10 ce 18 bd
       -0.2427358 -0.08106314 -0.20387344 -0.03730589
0001c0 01 59 03 3e 14 08 4a 3c 44 4f 8d 3d ca 19 28 3d
       0.12826921 0.012331028 0.06899884 0.04104022
0001d0 d6 c7 a1 3d ea f4 c7 be 4d d0 ec be 50 d5 31 be
       0.07899444 -0.39054042 -0.4625267 -0.17366529
0001e0 cb 58 82 be 5d 60 84 be e1 45 a5 bd 3f 9e 8b 3d
       -0.2545837 -0.2585477 -0.08069969 0.068172924
0001f0 27 65 9e 3c a7 7c 7d 3c 65 61 38 be 4d 91 d6 be
       0.019335343 0.015471614 -0.18005903 -0.4190773
000200 63 3a 41 3c f9 93 ea bd c9 48 1b be b6 6a c7 3d
       0.011793706 -0.11454005 -0.15164484 0.0973715
000210 15 71 e8 bc e7 a7 c1 3d 1c 21 47 3d 3f c0 74 3a
       -0.028374234 0.09455853 0.04861556 0.0009336508
000220 5a f1 bd bd 8c ce 7a bc c7 43 0f 3d 5f 38 68 3d
       -0.0927455 -0.015308034 0.034976747 0.056694385
000230 bd ce f2 3d 46 8a 42 3e e9 e8 fc 3d 00 f8 ae 3d
       0.118558384 0.1899806 0.123491116 0.08543396
000240 96 71 d3 bd 65 42 99 bd ce b5 b4 3d c0 f0 ba 3b
       -0.10324399 -0.07483367 0.08823739 0.005704969
000250 06 0a 68 bd 51 be 40 ba 7d ca 0c 3e 93 84 00 3e
       -0.056650184 -0.0007352578 0.13749118 0.12550573
000260 8c 20 7e 3e b2 ab d7 bd c6 76 28 3b b7 ee 6b bd
       0.24817103 -0.10530795 0.002570556 -0.057600703
000270 a5 3b b2 bd f2 3e 90 3d bf 6e 0f 3e 40 02 89 3d
       -0.087027825 0.07043256 0.1400709 0.06689882
000280 37 98 21 3e a7 ad 1a 3e b6 5d cb bd 57 22 f7 bd
       0.15780722 0.15105306 -0.09929983 -0.12067097
000290 b7 29 01 bd e5 2a e4 bd c9 5e 0c be df d6 a8 3d
       -0.031533923 -0.11140994 -0.13708033 0.082441084
0002a0 e8 5f e0 3d 5e af e4 3d 2e f4 0c 3e ea 80 c8 bd
       0.10955793 0.11166261 0.13765022 -0.097902134
0002b0 40 fd 30 be 43 6f 13 bd cd 0c 8e 3c 6f 97 cf bd
       -0.17284107 -0.03599478 0.017340088 -0.101363055
0002c0 fd ad 17 3e 2e 0e 83 bd 73 8a 77 3e 38 5c f8 3d
       0.14812465 -0.06399189 0.24173908 0.12126964
0002d0 bb ba 13 3e 39 d6 b5 3c 7f e1 e4 be c3 98 bb 3d
       0.14426701 0.022196876 -0.4470329 0.09159996
0002e0 0d c5 6a bd 7d 4c 04 bf a9 9e 74 3c 46 6e 58 3e
       -0.05731683 -0.5167921 0.014930406 0.21135816
0002f0 1c c7 89 3c 2b d6 b5 3d eb e3 dc bd 5c de b0 be
       0.016818576 0.0887874 -0.107856594 -0.34544647
000300 6b ae c1 bc dc f9 c7 bd 40 0b 32 be 36 49 59 bd
       -0.02364274 -0.09764454 -0.17387104 -0.053048335
000310 bb 50 44 3c 85 30 53 3c 63 49 36 3e 9c a8 63 3c
       0.011982138 0.012889986 0.17801432 0.01389518
000320 45 21 ad 3d f3 28 31 bd 5d 62 85 bc 82 86 dc bc
       0.08453611 -0.043251943 -0.016282255 -0.026919607
000330 69 82 39 be cc 7f e2 bd 94 71 87 3d 7a 54 9a 3c
       -0.18116154 -0.110595316 0.0661346 0.01883911
000340 14 4d 1f 3d ad 59 0f b9 d5 b0 6d 3d b3 57 75 3d
       0.038891867 -0.0001367095 0.05802997 0.05989809
000350 8d da eb 3c fc c5 9c bc af e8 81 3c fd a1 25 3e
       0.028790737 -0.019137375 0.015858022 0.16175075
000360 53 f8 ec 3c aa 52 69 3d aa 21 c1 3d 47 44 a3 bd
       0.028927004 0.0569636 0.09430249 -0.07972007
000370 db 94 aa 3d 08 1d 37 3e ea 7d fc bc 18 0f 0e 3d
       0.08329173 0.17882168 -0.03082176 0.034682363
000380 3d e6 8c 3e dc 32 d3 bb 69 d1 f2 bd 10 df 7a be
       0.27519408 -0.006445272 -0.11856348 -0.24499154
000390 34 bb be bd ad 35 e0 3d 4b 2e 5b 3d b2 a1 64 3d
       -0.0931305 0.10947738 0.053510945 0.055818267
0003a0 35 91 55 3e 6f 6a 98 3e 94 67 c5 3d 1a cb a6 bd
       0.20856173 0.29768702 0.096388966 -0.08144207
0003b0 be 5f 9f be 1a 84 49 3c c4 ee 4f 3e 1e 34 07 3b
       -0.31127733 0.012299562 0.20305926 0.002063043
0003c0 e4 f0 c8 3d 35 1c 68 3e 7b ca 53 3e 06 6b 21 3e
       0.09811571 0.2266701 0.20682709 0.15763482
0003d0 a7 7b 35 bc e1 90 07 3d a1 58 93 bd d9 b1 2e 3d
       -0.011076844 0.03309715 -0.07194639 0.042650077
0003e0 1c 96 f5 3d 35 48 39 be 44 08 d4 3d ec 7a 1a 3e
       0.11991522 -0.18093951 0.10353139 0.15085953
0003f0 f7 63 07 3c ff 58 84 bd a0 72 8a be 6f 44 d6 3d
       0.00826358 -0.06462287 -0.27040577 0.104622714

conv1_2.bias f4 [10]
000000 c6 ca 60 bc 2c 67 ba bc 66 12 1c be aa e7 96 3d
       -0.01372022 -0.022754274 -0.15241393 0.07368405
000010 57 ae a8 bd 6e 6f 09 3c 64 94 3f be 92 a2 8e bd
       -0.08236378 0.008388383 -0.1870895 -0.069646016
000020 3c 9b 8e 3b 42 ad 35 3c
       0.0043520015 0.011088671

conv2_1.weight f4 [10, 10, 3, 3]
000000 e9 0d 37 3e f7 82 d8 bc 8b 5f 71 bd e0 ff f1 bc
       0.178764 -0.026429636 -0.058929008 -0.029540956
000010 48 e8 ec 3d fb 72 0e 3d 76 82 75 3b c9 94 85 bc
       0.11567742 0.034777623 0.0037461794 -0.016306298
000020 58 93 1e be 92 c3 35 bd 15 d1 a7 bc be eb 9c bc
       -0.15485895 -0.044375964 -0.02048544 -0.01915538
000030 72 11 89 be 7b 0f 94 bd 9c 4f 6b bc a2 ad aa bd
       -0.26771122 -0.07229515 -0.014362242 -0.08333899
000040 37 b0 c3 3d df 17 5c 3e 60 a3 59 3e 45 ff 6d bc
       0.09555095 0.21493481 0.21253729 -0.014526193
000050 38 8e 01 bd a0 54 8d 3d 1e 57 d1 3d be 53 1b bd
       -0.03162977 0.069009066 0.102216944 -0.03792166
000060 7f 7c 6c 3d c4 bf 3a bd 8a ce 38 be 53 95 cb bd
       0.057735916 -0.04559304 -0.18047538 -0.09940591
000070 cb f4 62 be 78 c5 81 be 44 75 9b be 58 49 77 be
       -0.22163694 -0.2534597 -0.30362904 -0.24149072
000080 c8 92 c9 bc 97 6c a3 be cf 41 8c be f6 32 4b 3c
       -0.024606124 -0.31918785 -0.27393958 0.012402287
000090 a5 95 7e 3e 05 42 a4 3d 38 a2 80 bd e1 72 aa 3d
       0.24861772 0.08020405 -0.06280941 0.08322693
0000a0 35 62 0e bd 6c de 50 bd d9 c4 fe bb 5b 0a 80 bd
       -0.034761626 -0.050993368 -0.007774931 -0.06251975
0000b0 17 2f b0 3d 80 a2 82 3e 94 2e 8b bd e5 9b a9 3b
       0.08602732 0.25514603 -0.067959934 0.005176055
0000c0 c8 bb 2a 3d 79 cc 36 3d 41 0c 90 bd c0 ed 03 3d
       0.04168299 0.044628594 -0.07033587 0.032209158
0000d0 51 04 03 bd ac 22 3c 3d e0 f4 62 3e 0a b1 32 3e
       -0.03198654 0.045931503 0.22163725 0.17450348
0000e0 a4 05 62 3e 14 64 3e 3c cd a7 b2 bc 41 8b 8d 3d
       0.22072464 0.01162054 -0.02180853 0.06911326
0000f0 6c 91 0c be de 56 e2 3d 9b 55 84 3e 7a 33 4a 3e
       -0.13727349 0.11051725 0.25846562 0.19746199
000100 15 fe d8 bc 97 34 79 3b 6a a0 21 3e 3a 58 ee 3b
       -0.026488343 0.003802573 0.1578385 0.007273701
000110 19 cd dc ba d2 01 02 be 68 ff 9d 3c a9 63 a9 bc
       -0.0016845792 -0.12696007 0.019286826 -0.020677404
000120 27 42 62 bd 8a 4c 95 3d e3 34 91 3e a0 97 37 3e
       -0.05523887 0.07289989 0.28360662 0.17928934
000130 e2 74 1c 3d de 7b e7 3d e8 75 57 3d a5 ac 2c bc
       0.038197406 0.11302923 0.05260268 -0.010539209
000140 f6 1a d3 bc 34 e9 38 3e c8 2e 34 bd 60 fc d0 bd
       -0.025769692 0.1805771 -0.043989927 -0.10204387
000150 27 7b d6 3c f3 98 e5 bc c9 f7 ac bb 6a ec 19 be
       0.02618177 -0.028027033 -0.0052785617 -0.15031591
000160 2b ea 10 3e 86 cf 84 3e f3 85 dd 3a 4b 47 d8 bd
       0.14151828 0.25939578 0.0016900882 -0.10560473
000170 eb 01 07 3e c1 8d ea bd 65 6f 4d be 9e 82 87 bd
       0.13184325 -0.11452819 -0.20062025 -0.0661671
000180 61 2d d8 bd ad 55 34 be 06 3e 24 bd e7 60 32 bd
       -0.1055553 -0.17610808 -0.040098213 -0.043549445
000190 1e 0c 1b 3d ae 46 88 3d 5a d5 2d be 39 d7 46 be
       0.037853353 0.06654106 -0.16975918 -0.19418038
0001a0 cf d2 57 3d 89 ac a1 3e 5a a9 21 bd 7c 31 fa 3d
       0.052691277 0.31576946 -0.039468147 0.1221647
0001b0 02 fa 32 bd 94 dd 3c bc 55 77 38 3d c7 87 61 bd
       -0.043695457 -0.011527438 0.04503568 -0.055061128
0001c0 97 6d 0b be 82 86 e2 bd b8 e1 31 be 2c 1b 10 be
       -0.13616024 -0.110608116 -0.17371261 -0.14072865
0001d0 ae d5 e4 bd 5a b2 d0 3b 3c 56 bf bc 19 d8 04 be
       -0.11173569 0.0063689174 -0.02335655 -0.1297306
0001e0 50 16 85 bd 1f e7 a0 bd 73 de f6 bd 53 d0 fb 3e
       -0.064983964 -0.07856583 -0.120541476 0.49182376
0001f0 e7 af 87 3e e8 79 80 3d 88 da 9e bc 41 71 f2 3c
       0.2650139 0.06273252 -0.019391313 0.02959502
000200 4f aa 06 3e 97 4f e4 bd ad 69 4a bd 58 18 06 3e
       0.13150905 -0.11147993 -0.049417187 0.13095224
000210 6d 02 9c bd 22 4b f1 bd b9 65 10 3e dc 37 38 3c
       -0.0761765 -0.117819086 0.14101304 0.011243787
000220 c7 2a d2 3d 81 35 40 3e e4 74 a7 bd 64 7a 0f be
       0.102620654 0.1877041 -0.08176592 -0.14011532
000230 c9 e8 a3 3d ab f3 23 be be f8 3f be 54 a5 ba 3b
       0.080033846 -0.1601092 -0.18747231 0.005695978
000240 97 ad c9 bc e6 71 c7 3d d5 9e 46 3d 25 83 7b bd
       -0.024618907 0.09738521 0.048491318 -0.061404366
000250 98 2e b6 bd 74 18 e4 bd a1 a1 29 3d 7c b9 4a 3d
       -0.08895606 -0.111374766 0.041413907 0.049493298
000260 61 a0 d3 3d 14 f4 cb 3d 92 3e 3e 3e 99 28 3b 3e
       0.10333324 0.099586636 0.18578556 0.18277206
000270 f5 ea 35 bd f3 5c 0e be 7e 58 bf bc ad ed df bd
       -0.044413526 -0.13902645 -0.023357626 -0.10934005
000280 a9 26 14 bc d3 16 b3 3d 6b 9d a6 3d d2 bd 78 3e
       -0.00904242 0.08744588 0.08135494 0.2429116
000290 37 79 65 3e 2b 51 21 3e f7 ca 3a bc cc 57 1c 3d
       0.22409521 0.1575362 -0.01140093 0.038169667
0002a0 58 86 c3 3d 60 a9 53 3d 69 83 98 bc f4 e4 3a 3e
       0.095471084 0.0516752 -0.018617349 0.18251401
0002b0 dd 64 b1 bc 8c be 34 3d 14 5f 5f 3d 39 96 dc bd
       -0.02165454 0.044127032 0.054534033 -0.1077084
0002c0 e7 de a6 3c a7 76 45 3e 16 54 6a 3c 6f c3 d1 3d
       0.02036996 0.19283544 0.014302274 0.10242354
0002d0 74 02 22 3b d4 d2 88 3d f8 9e fe bb 31 8d a7 38
       0.00247207 0.06680837 -0.0077704154 7.9894795e-05
0002e0 e6 86 19 3d 68 e7 1c be 97 d3 4b bc c1 13 7d bd
       0.037482165 -0.1532265 -0.012440584 -0.061786417
0002f0 41 2f 7d be a5 07 50 3d c9 2a 18 3e 61 11 05 3b
       -0.24725057 0.05078854 0.14860071 0.0020304548
000300 52 a3 1e 3e fd 33 cc 3d a8 b0 b2 bd 05 c5 bb bd
       0.1549199 0.099708535 -0.08725101 -0.09168438
000310 15 5e a1 bd 2d d6 21 bf 05 1e 04 be cd 89 2b be
       -0.07879273 -0.6321743 -0.12902077 -0.16751786
000320 eb 98 93 3d 53 4a 2b be 12 1f 07 be 6d 03 db bd
       0.07206901 -0.16727571 -0.13195446 -0.10694013
000330 2d e1 9a be 0c 25 41 bd 9b b1 d2 bd 4e 4b 23 3e
       -0.3024992 -0.04715447 -0.10287782 0.15946695
000340 ba 3e e9 3c d0 91 c7 bd f6 48 34 3c 81 cd 3e 3e
       0.028472293 -0.097446084 0.011003723 0.18633081
000350 e6 10 12 be bd 26 85 3e ed 2c 49 3e c1 84 ba bd
       -0.14264259 0.26006117 0.19646044 -0.09107352
000360 42 9c 7c be c5 b9 a3 bc c8 95 c0 3d 1c dc 4b 3c
       -0.24668983 -0.019986043 0.094035685 0.012442615
000370 e6 6a 2c 3e db 31 d8 3d d7 95 a7 3d 85 38 46 3a
       0.16837654 0.10556384 0.081828766 0.00075615227
000380 60 fe 0d be 79 af 21 be 6a 88 b0 3c db 4a c5 3d
       -0.13866568 -0.15789594 0.021549422 0.09633418
000390 4d 40 51 3d 58 56 0b bc dc e7 d2 3d 96 92 ea 3c
       0.051086713 -0.008504473 0.1029813 0.02863435
0003a0 18 e7 26 3d 60 24 83 bd 9b 78 8f 3d bc 32 09 bc
       0.040747732 -0.06403422 0.070054255 -0.008373912
0003b0 fc fd f3 3d 3b b4 fe 3d 7e d1 39 3d 86 57 bd bd
       0.11913678 0.1243672 0.045365803 -0.092452094
0003c0 f6 16 91 3d f4 98 8d bd 81 f5 4e be 10 58 fe 3c
       0.070844576 -0.06913939 -0.2021084 0.03104785
0003d0 bb 3c a0 bc 0f ab b8 3c 2a 2a 9d bc 4d 33 1a 3e
       -0.019560209 0.022542505 -0.019185144 0.15058632
0003e0 bc 5b 27 3c c9 0a 79 3c 53 10 08 3e 3f 3f d0 bd
       0.010214742 0.015200325 0.13287477 -0.10168313
0003f0 fa c9 ec bd 22 1b b6 bd 2b b8 84 bd 61 3d 52 be
       -0.115619615 -0.08891894 -0.0648044 -0.20531227

conv2_1.bias f4 [10]
000000 18 58 55 bd 15 3e e7 bd 6f 35 a2 bd 35 d1 e9 3d
       -0.052085966 -0.11291138 -0.07920348 0.11416856
000010 6f 5b 5c 3e fb e3 d8 3d ad e7 54 bd 0f 1e 55 bd
       0.21519254 0.10590359 -0.051978756 -0.05203062
000020 cb b3 05 be 8c 0c f5 3d
       -0.13056867 0.11965284

conv2_2.weight f4 [10, 10, 3, 3]
000000 d7 30 c6 bd 51 58 5c bd 4b 5d 8c 3d 56 fc f2 bb
       -0.09677284 -0.053795163 0.06853732 -0.0074153347
000010 6e 62 2b bc ff 67 e2 3c f0 83 48 be 45 43 0d be
       -0.010460479 0.02763748 -0.1958158 -0.13795193
000020 17 1c 2b bd 8e e8 50 bd 0b 6c 3f bd 47 83 47 3e
       -0.041774835 -0.05100303 -0.046733897 0.19483672
000030 6f 75 6e 3d 68 f7 da bd 74 4f f5 3d 26 59 00 3e
       0.058217462 -0.1069172 0.11978045 0.12534007
000040 72 67 9c 3d 75 3f 09 3c 1a e6 9b 3d 5f 06 bd 3e
       0.07636918 0.008376946 0.07612248 0.36918923
000050 0b 67 6e 3e 20 a7 69 bd 91 ad 40 be 21 65 4f bc
       0.23281495 -0.05704415 -0.1881621 -0.012658388
000060 b0 c1 b2 be 16 6e 0e be 52 de 07 3d 4f d6 84 3d
       -0.34913397 -0.13909182 0.033171006 0.064861886
000070 6c ea f6 3c 2e 50 94 be 5b 06 bd 3d 6d 9e 45 be
       0.030141078 -0.28967422 0.09229728 -0.19298716
000080 aa 53 6a be b5 0d 53 3e 86 10 29 be 84 c0 3f be
       -0.22883478 0.20610698 -0.1651021 -0.18725783
000090 87 90 f7 bc 4a f3 41 be b1 00 0a bb 39 48 6f be
       -0.030220283 -0.18940464 -0.002105754 -0.23367395
0000a0 55 bb 3e be 95 ad b1 bd 46 d6 53 be da e5 11 be
       -0.18626149 -0.08675686 -0.20687208 -0.14247838
0000b0 d9 d6 d8 3d c8 fc 3a bc dc 68 7c be af 99 a8 bd
       0.10587854 -0.011412807 -0.24649376 -0.08232438
0000c0 cb b5 d8 be 86 64 f8 bd a3 c7 56 bb ff 9d da 3b
       -0.42326197 -0.12128548 -0.0032772801 0.0066716666
0000d0 ea 10 91 3d 59 28 5c 3e ad f8 2f 3e 4d fd f3 3d
       0.07083304 0.21499766 0.17184706 0.11913548
0000e0 21 ed bf bd 7f a4 0c 3e f4 da ad 3d c5 03 66 3d
       -0.093714006 0.13734625 0.084890276 0.05615594
0000f0 9f be 73 bd 4d 60 61 3d c8 ce a7 3d 21 16 c2 3c
       -0.059507962 0.05502348 0.08193737 0.023692193
000100 b2 b1 f9 bd 26 35 a1 3d 40 85 0f be 12 66 32 be
       -0.12192096 0.078714654 -0.14015675 -0.17421749
000110 d1 8e eb bc d0 91 ab be 18 9b 1b be bb 1a 75 bd
       -0.028754624 -0.33509684 -0.15195882 -0.059839945
000120 05 e7 8e bb d0 7e 87 3d 89 a5 05 bd b5 73 08 3d
       -0.004361036 0.066159844 -0.03262857 0.03331347
000130 7b c5 7a 3c 51 f2 26 bd 53 7e 26 bb 26 a9 a7 bd
       0.015305872 -0.040758435 -0.0025404885 -0.081865594
000140 4f 05 bd bd 92 77 5e 3e 4d c8 60 3e aa e0 26 bc
       -0.09229528 0.217253 0.21951409 -0.0101854
000150 b9 70 2c be 15 18 3b be e9 46 98 be 3c d1 b4 bd
       -0.16839875 -0.18270905 -0.297416 -0.08828971
000160 dc 2d 09 bc 61 29 80 be b4 9e 74 bc ed 51 1e bd
       -0.00837275 -0.2503157 -0.014930416 -0.03865235
000170 6a 44 39 3e 44 66 52 bd a0 82 c2 bd 77 8a 27 3e
       0.18092504 -0.05136706 -0.09497571 0.16361414
000180 35 1d 25 3d 0c 75 05 be 69 0c 0b 3d 18 05 96 be
       0.040311057 -0.13032931 0.033947382 -0.2930076
000190 66 58 91 be f9 8e c2 be fa 15 10 be 8b c8 30 bd
       -0.28387755 -0.37999704 -0.14070883 -0.043160003
0001a0 5b 5a 24 bd 81 0d 4e 3d e6 f1 1b 3d 35 17 58 3e
       -0.040125232 0.050305847 0.03807249 0.21102603
0001b0 7b 50 4c 3d 02 66 69 bd 5c b4 f4 bd c4 03 22 3e
       0.04988144 -0.056982048 -0.11948463 0.15821749
0001c0 49 c5 75 3d 01 83 03 be b7 34 30 be 9a 41 7c bd
       0.0600026 -0.12842943 -0.17207609 -0.061586
0001d0 c4 1a 55 3d a5 02 96 3d be c2 6c 3d 2c fe 5c be
       0.05202748 0.07324723 0.057802908 -0.21581334
0001e0 ac 45 27 3e b3 f7 1a bd a9 f1 f8 bd 03 d8 54 3e
       0.16335171 -0.03783388 -0.12155468 0.20785527
0001f0 51 54 61 be 07 d4 0f 3e 9f b3 a7 3d 66 1a 13 3e
       -0.2200482 0.14045726 0.08188557 0.14365539
000200 5e 82 91 3d 23 ac 28 3e e4 16 9c 3d 47 d2 65 3e
       0.07104944 0.16471915 0.076215535 0.22443496
000210 fd e4 32 be c0 6d b7 be e5 81 60 be f7 33 78 bd
       -0.17470165 -0.3582592 -0.21924551 -0.060596433
000220 93 d3 5d 3d 71 24 ca 3d 69 49 29 be 22 1f 84 be
       0.05415685 0.09870232 -0.1653191 -0.25805002
000230 82 f4 65 bd bc 9e a7 3d d2 b0 b1 3d 7f 9e ec bd
       -0.056141384 0.08184573 0.08676304 -0.11553668
000240 ac 9f 39 be 61 ac e1 bd 14 37 c7 bd 7a db 89 bd
       -0.18127316 -0.11019207 -0.09727302 -0.06731315
000250 45 b6 ff 3c 18 78 41 3d 29 bb a9 bd ce 0a 18 3d
       0.031214843 0.04723367 -0.08287651 0.03711968
000260 5e b0 c4 bc 5a d8 42 bd 78 3a d4 3d d9 ba a7 bd
       -0.02400988 -0.04756961 0.103627145 -0.08189935
000270 50 db dd bc ca c3 3c be 1a 32 b5 be 39 13 98 bd
       -0.027082115 -0.18434063 -0.35389787 -0.074255414
000280 36 e6 6c be 21 5b 68 be 45 f0 79 3d 6d d3 a0 3d
       -0.23134694 -0.22691013 0.061020155 0.07852826
000290 43 6a f2 bd 9f 48 cc 3d 98 6f f7 bc 84 ba 81 bd
       -0.11836674 0.09974789 -0.03020458 -0.06334403
0002a0 2e eb 53 bd 83 e8 60 bd 0c 00 82 bc 3c 93 a2 bd
       -0.051737957 -0.05490924 -0.015869163 -0.07938239
0002b0 23 80 9d be 44 02 ac 3c 1e 16 93 3d 07 cb 87 be
       -0.30761823 0.020997174 0.07181953 -0.26522085
0002c0 6c 17 5b be aa 63 97 3d ea ab ca be 3d cc b9 bd
       -0.21395653 0.07392056 -0.39584285 -0.090721585
0002d0 98 ee 38 be d1 62 1d bd d9 e3 90 bc ba c4 b1 bd
       -0.18059766 -0.038424317 -0.017686771 -0.08680101
0002e0 00 95 84 bd 2c ee 52 3d 55 5a 4c be ff 58 af ba
       -0.06473732 0.05149667 -0.19956334 -0.0013377963
0002f0 ec c7 d1 bd 17 41 f2 3d 5e e8 44 bd 03 3f 88 be
       -0.1024321 0.11828821 -0.048073165 -0.26610574
000300 1c 4d e8 bd 82 6a 66 be dc 66 2c be 39 26 02 be
       -0.113428324 -0.22501567 -0.16836113 -0.12709893
000310 7b 38 8a 3d d9 5a fe bc 3b eb 18 be 0b b9 e5 3d
       0.06749054 -0.031049179 -0.14933483 0.11216935
000320 5b d9 8b 3e b0 fd bc bd 53 22 da bc bf fc 9b be
       0.27314267 -0.092280746 -0.026627695 -0.30466267
000330 8d 11 fa 3d eb f6 4a 3e d1 d1 a3 bc 25 e5 c3 bd
       0.12210379 0.19820754 -0.01999751 -0.0956519
000340 55 0a db bc 57 8e 18 3d 32 6d 0b bd 53 7b 74 3c
       -0.026738325 0.03724512 -0.034039684 0.014921981
000350 06 a0 e3 bd 80 87 ae 3c fe 85 d9 bd f6 43 fd bd
       -0.111145064 0.021304846 -0.1062126 -0.12366478
000360 73 eb 36 3e 1f 0a 1c 3e ac 31 e9 3d 13 07 54 bd
       0.17863254 0.15238236 0.11386427 -0.05176456
000370 f3 9a a1 3d 24 28 35 3c 60 ae 1d 3e 52 57 bd 3d
       0.07890882 0.011056934 0.1539855 0.09245171
000380 75 8b 31 be 53 89 f6 bb 12 53 2f be c7 18 14 be
       -0.17338355 -0.0075236945 -0.17121533 -0.14462577
000390 02 a4 21 be a6 e9 30 be e5 29 3d 38 4c 6d 20 be
       -0.1578522 -0.1727663 4.510013e-05 -0.15666693
0003a0 ca cc 0d 3e f9 23 aa bc da 87 5b 3a 75 b2 14 be
       0.13847652 -0.020769106 0.00083744305 -0.14521201
0003b0 7e 99 0b bd 86 a6 4c bd c2 e5 a0 3d c4 7d 63 bc
       -0.03408193 -0.049963497 0.07856323 -0.013884965
0003c0 a7 bf 13 3e be 59 15 bc 48 a8 26 be 84 1d 6b 3e
       0.14428578 -0.0091156345 -0.16275132 0.22960478
0003d0 fb cd 17 3e a3 05 1a 3e 99 be 2d 3c 76 d7 12 3e
       0.14824669 0.15041213 0.010604524 0.14340004
0003e0 20 bc 1c 3e e6 33 6e 3d 97 f7 65 3e 5f 6e a7 3c
       0.15306139 0.058154963 0.2245773 0.020438371
0003f0 11 d9 8b 3d fe 5c 05 3d e8 da 18 3d f0 ba 41 bd
       0.068285115 0.032559387 0.03731814 -0.047297418

conv2_2.bias f4 [10]
000000 3d 49 fc bd 19 4b 0e 3e 33 8b 1a be 7e 51 e8 3c
       -0.123186566 0.13895835 -0.15092163 0.028359171
000010 53 c3 92 bd 22 ed ee 3c e1 23 02 be 18 89 6c 3b
       -0.071661614 0.029165808 -0.12708999 0.0036092456
000020 c7 16 0d 3e 14 7f 13 3e
       0.1377822 0.14403945

fc.weight f4 [10, 490]
000000 87 7e 2e 3e a9 41 a2 3d 1b 31 8c 3c 59 48 95 3d
       0.17040454 0.0792268 0.017113259 0.0728919
000010 38 10 31 3c 67 42 32 bd 60 6d 45 bd e4 c1 bb 3d
       0.0108070895 -0.043520357 -0.04820001 0.09167841
000020 97 11 09 3e 8c ea f7 3d 6f 09 75 bc f5 9a ba 3d
       0.13385616 0.12105283 -0.014955862 0.09111587
000030 ab 7d 1e be 6f 82 32 be ee 6a 35 be d2 04 db bb
       -0.15477626 -0.17432569 -0.17716572 -0.0066839242
000040 41 20 93 be ea d4 04 bd 30 a0 57 3d 1d 3b 60 be
       -0.28735545 -0.032429613 0.052643 -0.2189755
000050 8f 16 15 be 2e 80 de bd 57 2c 64 bd cd e0 5b be
       -0.14559387 -0.10864292 -0.05570635 -0.21472473
000060 5a 41 72 bc 25 79 bd bc 07 f3 06 be d8 30 34 3c
       -0.014786089 -0.023129055 -0.13178645 0.010997973
000070 b3 64 93 bc f7 c4 e2 3d a9 65 24 be 73 ac f8 be
       -0.017992353 0.11072724 -0.16054405 -0.48569068
000080 69 cb 8e be 7c 4b 53 3d 77 03 0b bb 5b 78 ac bd
       -0.27889565 0.05158566 -0.0021211782 -0.084213935
000090 be c0 9c 3d 1c 65 ab bc 48 f2 2a be e5 ee e8 b9
       0.0765395 -0.020922236 -0.16693985 -0.0004442848
0000a0 e8 4e b0 3d 01 37 bd 3d 56 87 c4 3d 0b 53 8a 3d
       0.086088 0.09239007 0.09596126 0.067541204
0000b0 8e 02 5a 3b 1e 3e b6 bd 77 64 e2 bc 42 c1 12 3d
       0.0033265683 -0.08898567 -0.027635796 0.035828836
0000c0 a2 8c 2e bd b3 3b de be 4c 0d 85 be d4 89 83 be
       -0.042614587 -0.43404922 -0.25986707 -0.25691092
0000d0 9f a0 45 be 60 cf 42 be 83 99 49 be 69 eb 94 bd
       -0.19299553 -0.1902442 -0.19687466 -0.072714634
0000e0 54 2b 6f be 63 97 88 be f9 ad 3c be bf 54 5f bd
       -0.23356372 -0.26678 -0.1842574 -0.05452418
0000f0 66 b1 84 3d e2 27 74 be a2 85 9a bd b4 13 88 be
       0.064791486 -0.23843339 -0.0754502 -0.26577532
000100 4c 51 97 be 01 97 9a bd 4b 23 c1 3d 08 57 58 3d
       -0.29554212 -0.07548333 0.0943056 0.052817374
000110 da 6e 4b bd f8 00 d2 3c ac 7f a4 bd c2 35 85 be
       -0.049666263 0.025635228 -0.08032164 -0.26017576
000120 30 f0 f2 be d1 77 d7 bd fe 2e c2 bd bf 31 01 bd
       -0.47448874 -0.105209 -0.09481619 -0.031541582
000130 04 64 57 3d 13 48 45 3c 27 fc f3 bc 26 1e 76 bc
       0.052585617 0.01204111 -0.029783322 -0.015021836
000140 13 e3 87 bd b1 76 b0 be 8f 02 cf 3a 91 c4 18 3c
       -0.06635108 -0.34465554 0.0015793609 0.009324209
000150 31 07 d9 3d 98 b6 27 bc 25 53 bf 3c 1f ca b0 3d
       0.10597075 -0.010236405 0.023355076 0.086323015
000160 cc 58 50 be 45 36 b8 3d 48 02 bf ba 5e 95 9d 3d
       -0.20346373 0.08994726 -0.0014572823 0.07694505
000170 a3 f2 3a 3d 71 08 1b bc 9d aa 91 bd e9 29 47 3d
       0.045641553 -0.009462462 -0.0711262 0.048623953
000180 83 de 23 be f2 5a 53 be ea 95 9b bd 87 10 82 3c
       -0.1600285 -0.20640162 -0.07596953 0.015877021
000190 ce 88 50 bb 1b 8a 4d be 34 fd 18 be 72 86 de bd
       -0.0031819823 -0.20072214 -0.1494034 -0.10865487
0001a0 16 7f e7 bd 75 2b d1 3a 48 e8 44 bd b2 42 01 be
       -0.113035366 0.0015958386 -0.048073083 -0.12623098
0001b0 a8 73 23 be 0b 36 1e be b1 1a da 3c ff 10 8f 3c
       -0.15962088 -0.15450303 0.026624056 0.017464159
0001c0 e6 be b4 bd 79 fd 2c bd 6c 86 4b bd 51 1a 9d bd
       -0.088254735 -0.042233918 -0.04968874 -0.07671035
0001d0 65 50 a5 bd c3 4d 32 3c 90 20 90 3d 92 17 83 3d
       -0.08071975 0.010882798 0.07037461 0.0640098
0001e0 3a c7 56 3d ca 82 74 3d 71 84 a3 3d 4b 5e 2f bd
       0.05243609 0.059695043 0.079842456 -0.042814534
0001f0 ec 9a 8e 3d 86 3d db 3d 0e 68 57 3d fc 73 68 3d
       0.06963143 0.10705094 0.05258947 0.056751236
000200 67 9b 26 3d ec 30 7c 3d 5a 05 35 bd 0d 2b 3e 3d
       0.040675547 0.061570093 -0.044194557 0.046427775
000210 b6 ec aa 3d 66 c8 26 3e 14 4f 98 bc ab 2e 31 3e
       0.0834593 0.16287383 -0.018592395 0.17302959
000220 78 cd 16 bd 06 0d 0e be 86 89 fb bd 3f 6a c1 bd
       -0.036817044 -0.13872156 -0.1228209 -0.09444093
000230 f3 6d a5 3c 2b 86 7e bd 47 5f 59 be 56 b0 e5 be
       0.02019403 -0.06213967 -0.21227752 -0.44861096
000240 d4 d3 ed be d3 64 89 be 3e 84 ec bd b3 5a cd be
       -0.46450675 -0.26834735 -0.11548661 -0.4010826
000250 c5 5e d9 bd 21 fd 4a be 8d 64 94 bd b4 93 0e 3c
       -0.10613779 -0.19823124 -0.07245741 0.008702207
000260 1e a9 6e 3d 3f 13 0c 3d ee 9e 4b be da 8e 8c be
       0.05826675 0.034198042 -0.19884846 -0.27452737
000270 10 91 bb be b4 26 40 be f8 84 a0 3c 2c a9 76 3d
       -0.3663411 -0.18764764 0.019594654 0.06021993
000280 9e 98 39 3c da 75 69 be 2f dc d9 be 66 77 d8 be
       0.011327891 -0.22798863 -0.425508 -0.42278594
000290 2f a5 2e bd 4c 0e ec bc 08 0f 89 bd 59 ed 4e be
       -0.042638 -0.028815411 -0.0669232 -0.20207728
0002a0 35 5b 6b bd f4 ea e8 bd 10 2d 8c be c8 44 91 bd
       -0.05746003 -0.11372939 -0.2737813 -0.07093197
0002b0 95 50 1d 3e 81 6d 30 3c a1 7d d7 be 69 c0 0f 3c
       0.15362771 0.010768295 -0.42088035 0.0087739015
0002c0 aa bb 22 3d e1 99 98 3d 20 6f ad bd d8 db c6 bd
       0.03972975 0.07451225 -0.08468461 -0.097099006
0002d0 fe ca c9 be 04 4d 05 bf 94 4a 23 3c c3 15 4d 3d
       -0.39412683 -0.5207064 0.009966511 0.05006958
0002e0 88 fd 51 3d 00 82 ff 3d ad 23 31 be fb e1 ea be
       0.051267177 0.124759674 -0.17298765 -0.45875534
0002f0 d9 36 76 be 62 ea 99 3c 8c 00 ff 3c 1b 01 e7 3c
       -0.2404436 0.01878852 0.03112819 0.02819877
000300 d6 bd 0f 3c d0 6b 69 be df 00 68 bd a9 df 52 3d
       0.008773288 -0.22795033 -0.056641456 0.05148283
000310 e6 21 84 3d be 88 8d be a9 d6 47 be c6 e5 9c be
       0.06451778 -0.27643389 -0.1951548 -0.30644053
000320 d0 d2 87 be 99 ea c6 bd a3 6e 33 be 0d 65 3d 3d
       -0.26528025 -0.09712715 -0.17522673 0.046238948
000330 24 c8 eb bc 73 7a b1 3d 6a f3 0f 3c 3c 7e 1d bd
       -0.028781958 0.086659335 0.008786062 -0.038450465
000340 27 ec 5a 3c 7c 27 a2 bc de ff f5 3d 2b 55 b5 3d
       0.013361967 -0.019794218 0.120116934 0.08854135
000350 06 c0 8a 3d 1c 3f 6e 3d e0 7e 2e be 86 4e d5 bd
       0.06774907 0.058165655 -0.17040586 -0.10415368
000360 b0 d1 91 bd a4 a9 ab 3c 32 bd bd 3d 57 f9 e9 3d
       -0.07120073 0.020954914 0.09264602 0.11424511
000370 e4 e5 0d bd d8 3d 22 3d d6 b8 7f 39 e5 d8 6d bd
       -0.03464307 0.03960976 0.00024387552 -0.058068175
000380 5e 7d a4 bc 4d 6a 2c bd b5 91 80 3d 16 fa d1 bc
       -0.020079311 -0.042093564 0.062777914 -0.025631946
000390 3b 16 85 3d 42 9b d2 3d 30 8e 89 3d b1 01 72 3d
       0.06498381 0.10283519 0.06716573 0.059083644
0003a0 1d 7c 31 be 31 9f 97 be 08 be 86 bd 85 f2 f8 3c
       -0.17332502 -0.2961364 -0.06579214 0.03038908
0003b0 22 16 9f 3c 8c d8 46 3c a5 4b 06 3d ad b7 a5 be
       0.019419733 0.01213659 0.032786984 -0.32366696
0003c0 7e 82 02 bf 21 50 04 bf 5b 76 0f be 29 5c 35 be
       -0.50980365 -0.51684767 -0.14009993 -0.17710938
0003d0 bc b7 bf be 25 70 e0 bd 83 19 a9 bd 96 e2 93 3b
       -0.37444866 -0.1095889 -0.08256819 0.004513095
0003e0 db 07 19 3d 13 50 19 3c 56 8c 88 be 9c 54 59 be
       0.037361007 0.00935747 -0.26669568 -0.21223682
0003f0 4c be 9b bd ed 2f 88 3c 93 e4 5d 3d 8a 02 45 3d
       -0.076046556 0.016624415 0.054173063 0.048098125

fc.bias f4 [10]
000000 b4 49 ce bd 1e 3b 0e 3f e1 41 42 be b5 dd f2 3c
       -0.100726515 0.55558956 -0.18970443 0.029646734
000010 b5 14 1c be 59 8b 2d be 63 2e 05 3e 78 ec 77 bd
       -0.15242274 -0.16947688 0.13005976 -0.06052825
000020 77 32 39 3d 97 c7 01 3e
       0.045214143 0.12673794
